Self_Driving_Car/last_brain.pth (torch, 7271 bytes, 12 tensors)

fc1.weight f4 [30, 5]
0	0x3f2f5332	0.6848632
1	0xbeb67139	-0.35633257
2	0x3da93819	0.08262653
3	0x3d99ac12	0.07503523
4	0xbc1c424b	-0.00953729
5	0xbde50281	-0.11182118
6	0xbe839593	-0.25700054
7	0x3f4f2427	0.8091454
8	0x3eb34bf6	0.3501889
9	0xbf0c6d94	-0.548547
10	0xbcbbeadd	-0.02293914
11	0x3eb25300	0.3482895
12	0xbec0053a	-0.37503988
13	0xbd3d20a5	-0.04617371
14	0xbecf9549	-0.40543583
15	0xbe1d8360	-0.15382147
16	0xbe34301c	-0.17596477
17	0xbea839df	-0.32856652
18	0x3d20cd30	0.039258182
19	0x3d2c7e08	0.04211238
20	0xbf6f2c39	-0.93426853
21	0xbebd777a	-0.37005216
22	0xbdc04761	-0.093886144
23	0xbec20893	-0.37897167
24	0x3f2d16c9	0.6761289
25	0xbe97f954	-0.2968241
26	0xbe1e081e	-0.15432784
27	0x3e6c8554	0.23097736
28	0xbdd91004	-0.10598758
29	0xbe18bdc2	-0.14916137
30	0x3d071cca	0.03298644
31	0xbe3bc37b	-0.18336289
32	0x3f3cfc83	0.738228
33	0x3c856df4	0.016287781
34	0xbf1e8ded	-0.6193531
35	0x3f1b2ef4	0.6061852
36	0x3f58965e	0.8460444
37	0xbe3411a4	-0.17584854
38	0xbe879947	-0.2648413
39	0x3ed43e50	0.4145379
40	0x3f11a817	0.5689711
41	0x3e50b401	0.20381166
42	0xbf189da9	-0.5961557
43	0xbd7189e2	-0.058969386
44	0x3f41e753	0.757436
45	0x3c1e0f88	0.009647258
46	0x3eeed342	0.46645552
47	0x3ecbaad3	0.39778766
48	0xbe649e92	-0.22326115
49	0x3f067fbe	0.5253867
50	0x3eca5da9	0.39524582
51	0x3ec91e84	0.39281094
52	0x3d8b64ac	0.06806311
53	0x3eccc66b	0.3999513
54	0xbf053360	-0.5203152
55	0x3f0a5f59	0.5405174
56	0x3eb21854	0.34784186
57	0x3ebdcef4	0.37071955
58	0xbf0a94cb	-0.5413329
59	0x3eba8e4d	0.36436692
60	0xbea1be59	-0.31590536
61	0x3eb927e3	0.36163244
62	0x3ed119c2	0.40839964
63	0x3f1925b0	0.5982313
64	0xbec999e2	-0.39375216
65	0x3e4d7a42	0.20066169
66	0x3d2eca10	0.04267317
67	0x3ef56157	0.47925827
68	0x3e91f60d	0.28508034
69	0xbf4b8d31	-0.79512316
70	0x3f354ac4	0.7081721
71	0xbdd84b84	-0.105612785
72	0x3eba217b	0.3635367
73	0x3ed25800	0.41082764
74	0xbd6fd5d2	-0.058553524
75	0xbe7b1e5f	-0.24523304
76	0xbdd85921	-0.10563875
77	0x3f4deac7	0.80436367
78	0x3f0efe0b	0.5585639
79	0xbea1ee81	-0.31627277
80	0x3ec4a78e	0.38409084
81	0xbca83b43	-0.02053607
82	0x3f40ea57	0.75357574
83	0x3f1f750a	0.6228796
84	0xbf21970c	-0.63121104
85	0xbda5ec0f	-0.08101665
86	0x3f16312b	0.58668774
87	0x3dbf3e01	0.09337998
88	0x3f3235da	0.6961342
89	0xbf2748d0	-0.6534548
90	0x3f21c584	0.6319201
91	0x3ea8cc4f	0.32968375
92	0xbe88d6f5	-0.267265
93	0xbf1ea32d	-0.61967736
94	0xbcefbebe	-0.029265758
95	0xbe87cf8f	-0.26525542
96	0xbeb18ff6	-0.34680146
97	0xbee1290c	-0.4397663
98	0xbe9fe7d2	-0.31231552
99	0xbe558cad	-0.20854445
100	0xbf0ae1cc	-0.5425079
101	0x3e3c634a	0.18397251
102	0xbf0bcc81	-0.54608923
103	0xbe7212fa	-0.23640051
104	0xbccc08b4	-0.024906494
105	0x3eeae373	0.45876655
106	0x3efa4a97	0.48885033
107	0x3ec6b5b1	0.38810495
108	0xbe4010a8	-0.18756354
109	0x3eefb1ef	0.4681544
110	0x3eefa0fc	0.4680251
111	0xbde21279	-0.1103868
112	0x3ec8f174	0.39246714
113	0x3ec6ceea	0.38829738
114	0xbf418590	-0.75594425
115	0x3e71fe19	0.23632087
116	0x3e706a7e	0.23478124
117	0xbd55b15d	-0.0521711
118	0xbf4839d1	-0.7821322
119	0x3f118f1a	0.5685898
120	0x3da8379c	0.08213732
121	0x3dd6f3df	0.104957335
122	0x3e23da27	0.16001187
123	0xbf1b7527	-0.60725635
124	0x3f28ec59	0.6598564
125	0x3e310a63	0.17289118
126	0x3c43a056	0.011940083
127	0x3f12704e	0.57202613
128	0x3e828f69	0.25500038
129	0xbef933a5	-0.48672214
130	0x3ed03ab3	0.40669784
131	0x3f22ce5c	0.6359613
132	0x3d21490e	0.03937631
133	0xbec27253	-0.37977847
134	0x3e734b2e	0.23759148
135	0x3f1a0849	0.6016889
136	0xbd76a704	-0.060217872
137	0xbe6f2df1	-0.23357369
138	0xbf3f9ebd	-0.7485159
139	0x3f26a0b5	0.6508897
140	0x3d1de6b8	0.03855011
141	0xbddf56ed	-0.10905252
142	0xbe408858	-0.18802011
143	0xbefaa257	-0.4895198
144	0x3e65171d	0.22372098
145	0xbdcc99bd	-0.09990261
146	0x3eb9fcc3	0.36325654
147	0xbee2e09b	-0.44311985
148	0x3e23a0e4	0.15979344
149	0xbee91151	-0.45521024

fc1.bias f4 [30]
0	0xbe47db0c	-0.19517154
1	0xbed3a9aa	-0.4134038
2	0x3f4a4715	0.7901471
3	0xbee260aa	-0.44214374
4	0x3f3c4b29	0.73552185
5	0xbe93c358	-0.28859973
6	0x3dc60f1c	0.09670851
7	0xbe90a793	-0.2825285
8	0x3e2340c9	0.15942682
9	0x3eac02e5	0.33595958
10	0xbe4f5b13	-0.20249586
11	0xbe9d1d20	-0.30686283
12	0xbeddd782	-0.43328482
13	0xbed0075a	-0.4063061
14	0xbe049c8c	-0.12950343
15	0xbe8cb376	-0.27480668
16	0xbee75312	-0.45180565
17	0xbed1b786	-0.4096033
18	0xbe6d681d	-0.23184247
19	0xbe70cb03	-0.23514943
20	0x3ee21162	0.44153887
21	0xbf4473bd	-0.767391
22	0xbebcb8ca	-0.36859733
23	0xbe89c39f	-0.2690706
24	0xbeba4f4f	-0.36388633
25	0xbf53bb6f	-0.82707876
26	0xbe80375f	-0.25042245
27	0xbed7d52e	-0.4215483
28	0x3f772886	0.9654621
29	0xbe6ad376	-0.22932228

fc2.weight f4 [3, 30]
0	0xbebdec70	-0.3709445
1	0xbdb00911	-0.08595479
2	0x3ea310ae	0.31848663
3	0xbe301ea8	-0.17199194
4	0x3eba3fab	0.363767
5	0x3cf291a0	0.029610455
6	0x3e493fb0	0.19653201
7	0xbe38cbfa	-0.18046561
8	0x3dedbd3d	0.1160836
9	0xbf034b85	-0.5128711
10	0xbdeb7f94	-0.11498943
11	0xbf0f2aab	-0.5592448
12	0xbf2cabed	-0.6744984
13	0xbedb9f53	-0.42894992
14	0xbecdb5c0	-0.40177727
15	0x3d2c7ee0	0.042113185
16	0xbf1c76ab	-0.6111857
17	0xbec68385	-0.38772216
18	0xbe86c20e	-0.26319927
19	0x3e092022	0.13391164
20	0x3ea4866b	0.32133803
21	0xbe53169a	-0.2061409
22	0xbefcfad0	-0.49410105
23	0xbe855c0f	-0.26046798
24	0xbeddcd0d	-0.43320504
25	0x3f2fadf3	0.686248
26	0xbec0ca0a	-0.37654144
27	0xbf4086ac	-0.7520549
28	0x3e6661bb	0.22498219
29	0xbeb43fa2	-0.35204798
30	0x3e17ef33	0.14837341
31	0x3ea8037b	0.32815155
32	0x3d5a9a65	0.0533699
33	0xbcf9a220	-0.030472815
34	0x3f1769e0	0.5914593
35	0x3d88fdc4	0.06689027
36	0x3e23f6ff	0.1601219
37	0xbf7d93bf	-0.9905357
38	0xbf153c01	-0.58294684
39	0xbedb68b3	-0.42853317
40	0xbf12ee89	-0.57395226
41	0xbe846ce9	-0.25864342
42	0xbe7bc709	-0.24587645
43	0xbe6c81cd	-0.2309639
44	0xbdcdf1e6	-0.10055904
45	0xbe89fea9	-0.26952103
46	0xbe371c85	-0.17881973
47	0xbf2476d8	-0.6424384
48	0xbf54ec25	-0.8317283
49	0xbdd8640b	-0.10565957
50	0x3ec35388	0.38149667
51	0xbee689f9	-0.4502714
52	0xbed93d40	-0.42429543
53	0xbd5525bc	-0.05203794
54	0xbe2be14f	-0.16785167
55	0x3f404771	0.7510901
56	0xbef92dd0	-0.48667765
57	0xbf45835a	-0.7715355
58	0x3ede74ab	0.43448386
59	0xbe707d49	-0.23485292
60	0xbe6f0b1d	-0.23344083
61	0xbf5d4684	-0.86435723
62	0x3ed47599	0.4149597
63	0xbe29bb19	-0.16575278
64	0x3e169d5b	0.14708464
65	0xbe0e0f1c	-0.13872951
66	0xbe5e227d	-0.21692844
67	0x3e280fda	0.16412297
68	0xbdb7849d	-0.08960841
69	0xbf345dbb	-0.7045552
70	0x3e3d7d53	0.18504839
71	0xbf2b37b1	-0.66881853
72	0xbf1a52d6	-0.6028265
73	0xbf0d755a	-0.5525719
74	0xbe3a7649	-0.18209185
75	0xbeef46cf	-0.4673371
76	0xbec35e03	-0.38157663
77	0x3d86cbf4	0.0658187
78	0xbda55253	-0.08072343
79	0x3cb0d430	0.021585554
80	0x3eb534ce	0.3539185
81	0x3f2db20b	0.67849797
82	0xbecad738	-0.39617324
83	0xbf36bdff	-0.7138366
84	0xbeb6b6f0	-0.35686445
85	0xbee703e0	-0.45120144
86	0x3df193b1	0.11795748
87	0xbf22df26	-0.6362175
88	0x3f13b4ac	0.5769756
89	0x3dec8d53	0.11550393

fc2.bias f4 [3]
0	0x3e94275d	0.28936282
1	0x3e2b6bcc	0.1674034
2	0x3e0f7767	0.14010392

exp_avg f4 [30, 5]
0	0xb9263c14	-0.00015853374
1	0xb88d35c4	-6.7334186e-05
2	0xba0e1aea	-0.00054208806
3	0x3971839c	0.0002303258
4	0xb971839c	-0.0002303258
5	0x38968c46	7.178685e-05
6	0x39c562a3	0.00037648258
7	0xb82b7c68	-4.088544e-05
8	0xba8ffc92	-0.0010985306
9	0x3a8ffc92	0.0010985306
10	0x39906b9a	0.0002754599
11	0xb944a998	-0.00018755195
12	0x3a85e12a	0.0010214199
13	0x3a27c6ac	0.0006400149
14	0xba27c6ac	-0.0006400149
15	0x00000000	0.0
16	0x00000000	0.0
17	0x00000000	0.0
18	0x00000000	0.0
19	0x00000000	0.0
20	0x393806c4	0.00017550128
21	0xb736a4c0	-1.0886404e-05
22	0x39d27807	0.0004014375
23	0x3a03789f	0.00050152274
24	0xba03789f	-0.00050152274
25	0x00000000	0.0
26	0x00000000	0.0
27	0x00000000	0.0
28	0x00000000	0.0
29	0x00000000	0.0
30	0xba18a5ea	-0.0005823063
31	0xb99f4c5c	-0.00030383735
32	0xba2a190d	-0.0006488718
33	0x39f49c82	0.00046655914
34	0xb9f49c82	-0.00046655914
35	0xb9394f40	-0.00017672498
36	0xba1f6864	-0.0006080924
37	0x39130cba	0.00014023753
38	0xba4b0c21	-0.0007745643
39	0x3a4b0c21	0.0007745643
40	0xb70e9e30	-8.5006905e-06
41	0xb88a94a1	-6.608037e-05
42	0xb9051649	-0.0001269217
43	0xb978bc2f	-0.00023721227
44	0x3978bc2f	0.00023721227
45	0xba4200c8	-0.0007400629
46	0x38c7def0	9.530585e-05
47	0xbb00b5d7	-0.0019639635
48	0xba1e4d9d	-0.0006038787
49	0x3a1e4d9d	0.0006038787
50	0x3832dc36	4.2643594e-05
51	0xba218a56	-0.0006162276
52	0xb8822a84	-6.206802e-05
53	0x38e9cfe8	0.00011149031
54	0xb8e9cfe8	-0.00011149031
55	0xba189334	-0.0005820275
56	0xb97c3d20	-0.00024055364
57	0xbab90d8e	-0.001411842
58	0xba03bdb6	-0.00050255226
59	0x3a03bdb6	0.00050255226
60	0x39923028	0.0002788317
61	0x3990c99b	0.00027616028
62	0xb81995b8	-3.661748e-05
63	0xba62eafc	-0.0008656231
64	0x3a62eafc	0.0008656231
65	0x39b5f97d	0.00034708894
66	0x3978b098	0.0002371691
67	0x392c8ec7	0.00016456387
68	0xba4814f9	-0.00076325197
69	0x3a4814f9	0.00076325197
70	0xb838d410	-4.4066517e-05
71	0xb9358377	-0.0001731048
72	0xb9bc1558	-0.00035874057
73	0xb93cc1e6	-0.0001800131
74	0x393cc1e6	0.0001800131
75	0x39755368	0.00023396092
76	0x388ae7a0	6.623496e-05
77	0xb7c6b841	-2.368924e-05
78	0xb9f0ea3c	-0.00045950885
79	0x39f0ea3c	0.00045950885
80	0x39dea3d2	0.00042465195
81	0x3973150d	0.00023182128
82	0x39bd44d0	0.00036100158
83	0xba2aed2c	-0.0006520327
84	0x3a2aed2c	0.0006520327
85	0x3961ff63	0.00021552811
86	0xb9d70a28	-0.00041015563
87	0x38f2390c	0.00011550085
88	0xb8903548	-6.8763795e-05
89	0x38903548	6.8763795e-05
90	0x38eb17d4	0.000112101116
91	0x36869020	4.0102896e-06
92	0xb7b75458	-2.1854576e-05
93	0xb9840068	-0.00025177305
94	0x39840068	0.00025177305
95	0x00000000	0.0
96	0x00000000	0.0
97	0x00000000	0.0
98	0x00000000	0.0
99	0x00000000	0.0
100	0xb97f5a24	-0.00024352275
101	0xba479d36	-0.0007614674
102	0x38d1ea82	0.00010009577
103	0x3ad22bb8	0.0016034758
104	0xbad22bb8	-0.0016034758
105	0x39c324ce	0.0003722072
106	0x381fabe0	3.8068625e-05
107	0x3aee8f98	0.0018200753
108	0xb8f5c840	-0.0001171981
109	0x38f5c840	0.0001171981
110	0x39d69d85	0.00040934622
111	0x37d1698a	2.4963887e-05
112	0x393dc582	0.00018098022
113	0xba28f698	-0.0006445437
114	0x3a28f698	0.0006445437
115	0xb9eda202	-0.00045324868
116	0xb8a5b410	-7.9013524e-05
117	0xbae195fc	-0.0017210837
118	0xb93355a0	-0.00017102668
119	0x393355a0	0.00017102668
120	0xb9260e80	-0.00015836395
121	0xb8abe908	-8.197321e-05
122	0xba3e7558	-0.00072654104
123	0xb9695860	-0.00022253534
124	0x39695860	0.00022253534
125	0xb991b000	-0.00027787685
126	0x3a01d92e	0.0004953322
127	0xb8f53820	-0.000116929645
128	0xb7ad52d0	-2.066177e-05
129	0x37ad52d0	2.066177e-05
130	0xb72029e0	-9.546493e-06
131	0xb96e16d8	-0.00022705959
132	0x395e46eb	0.00021197989
133	0xb9f234fa	-0.00046197308
134	0x39f234fa	0.00046197308
135	0xb965a598	-0.0002190083
136	0xb9cc9312	-0.00039019488
137	0xbaa99fea	-0.0012941335
138	0xba0acc56	-0.00052947307
139	0x3a0acc56	0.00052947307
140	0x399035fa	0.00027506036
141	0x380c8320	3.350072e-05
142	0x3ab3d832	0.0013721047
143	0x3a7decbe	0.00096864614
144	0xba7decbe	-0.00096864614
145	0xb90ad8f3	-0.00013241525
146	0xb93f5fdf	-0.00018250894
147	0xb8f0155c	-0.0001144807
148	0xb89b359a	-7.40096e-05
149	0x389b359a	7.40096e-05

exp_avg_sq f4 [30, 5]
0	0x3621360c	2.402233e-06
1	0x35b06473	1.3142256e-06
2	0x35d3713a	1.5753678e-06
3	0x356a47d4	8.7276317e-07
4	0x356a47d4	8.7276317e-07
5	0x367df22f	3.7840907e-06
6	0x36b2d539	5.3296358e-06
7	0x369493ca	4.4279486e-06
8	0x37a5098a	1.9673975e-05
9	0x37a5098a	1.9673975e-05
10	0x36fccf6c	7.5343323e-06
11	0x37303086	1.0501715e-05
12	0x367e9d72	3.7940595e-06
13	0x37434535	1.1639019e-05
14	0x37434535	1.1639019e-05
15	0x00000000	0.0
16	0x00000000	0.0
17	0x00000000	0.0
18	0x00000000	0.0
19	0x00000000	0.0
20	0x353e606b	7.092082e-07
21	0x356fae49	8.9288056e-07
22	0x36088a40	2.0346051e-06
23	0x36b3d3ad	5.359258e-06
24	0x36b3d3ad	5.359258e-06
25	0x00000000	0.0
26	0x00000000	0.0
27	0x00000000	0.0
28	0x00000000	0.0
29	0x00000000	0.0
30	0x357c6051	9.4017474e-07
31	0x3554aaec	7.922488e-07
32	0x35a83b91	1.2534312e-06
33	0x35f22ef5	1.8044071e-06
34	0x35f22ef5	1.8044071e-06
35	0x35ca41c0	1.5069309e-06
36	0x36070b2a	2.0123066e-06
37	0x3585423f	9.928552e-07
38	0x3720dd89	9.588323e-06
39	0x3720dd89	9.588323e-06
40	0x35065225	5.0038426e-07
41	0x351cfebc	5.8485216e-07
42	0x349e3555	2.9468598e-07
43	0x365e944d	3.31669e-06
44	0x365e944d	3.31669e-06
45	0x37b1513e	2.1137876e-05
46	0x37f6c691	2.941795e-05
47	0x37485709	1.1941193e-05
48	0x37bc064b	2.2414277e-05
49	0x37bc064b	2.2414277e-05
50	0x35919331	1.084618e-06
51	0x3525c6d8	6.1756646e-07
52	0x365b7b77	3.270541e-06
53	0x36915454	4.331154e-06
54	0x36915454	4.331154e-06
55	0x37a2b9b9	1.9398389e-05
56	0x37d11631	2.4925075e-05
57	0x371f52de	9.4964325e-06
58	0x3784f3b8	1.5849117e-05
59	0x3784f3b8	1.5849117e-05
60	0x360828fd	2.0289438e-06
61	0x365e6ad3	3.3142758e-06
62	0x364099d1	2.8699762e-06
63	0x3744bbda	1.1726248e-05
64	0x3744bbda	1.1726248e-05
65	0x366482f5	3.4050875e-06
66	0x365839ca	3.2220146e-06
67	0x3659e059	3.2466107e-06
68	0x3723b92f	9.7586735e-06
69	0x3723b92f	9.7586735e-06
70	0x36055316	1.9866907e-06
71	0x3586a64b	1.0032176e-06
72	0x36123a9c	2.178981e-06
73	0x360558ad	1.987016e-06
74	0x360558ad	1.987016e-06
75	0x359e7c83	1.1808155e-06
76	0x35e43736	1.7003392e-06
77	0x35faa779	1.8675192e-06
78	0x36db9b8c	6.5448166e-06
79	0x36db9b8c	6.5448166e-06
80	0x3668d376	3.469378e-06
81	0x35f851a9	1.8501206e-06
82	0x36aba256	5.1150955e-06
83	0x36cd04de	6.1100427e-06
84	0x36cd04de	6.1100427e-06
85	0x353ab809	6.9558206e-07
86	0x339ac386	7.206749e-08
87	0x3683c9eb	3.9276106e-06
88	0x36af3f15	5.22275e-06
89	0x36af3f15	5.22275e-06
90	0x3570314c	8.9478704e-07
91	0x353d4c5a	7.051909e-07
92	0x353f1f74	7.1198815e-07
93	0x36cdd831	6.134644e-06
94	0x36cdd831	6.134644e-06
95	0x00000000	0.0
96	0x00000000	0.0
97	0x00000000	0.0
98	0x00000000	0.0
99	0x00000000	0.0
100	0x36457359	2.9422429e-06
101	0x36b0ca9d	5.268796e-06
102	0x358d7259	1.0538598e-06
103	0x37108b91	8.615564e-06
104	0x37108b91	8.615564e-06
105	0x3762ce2c	1.3518653e-05
106	0x3790ab15	1.7245804e-05
107	0x36b5fa22	5.4233396e-06
108	0x3728abe9	1.0053606e-05
109	0x3728abe9	1.0053606e-05
110	0x36405f19	2.8665584e-06
111	0x35f2577f	1.805587e-06
112	0x3688f7d8	4.0819687e-06
113	0x36fed17f	7.5941784e-06
114	0x36fed17f	7.5941784e-06
115	0x378b76c9	1.6625405e-05
116	0x37cdd5a3	2.4537387e-05
117	0x36b629dc	5.4288957e-06
118	0x377cbb14	1.5063928e-05
119	0x377cbb14	1.5063928e-05
120	0x36ab401a	5.1036595e-06
121	0x36c6668d	5.9127983e-06
122	0x3632e0a1	2.6654818e-06
123	0x36956533	4.452327e-06
124	0x36956533	4.452327e-06
125	0x35e8c128	1.7341563e-06
126	0x358cce6f	1.0490893e-06
127	0x367a04f3	3.7255784e-06
128	0x363fd599	2.8585548e-06
129	0x363fd599	2.8585548e-06
130	0x35d99f92	1.6214201e-06
131	0x35823b47	9.703007e-07
132	0x35bba602	1.39809e-06
133	0x363d5d85	2.821763e-06
134	0x363d5d85	2.821763e-06
135	0x378f0f34	1.7054008e-05
136	0x37a45c1b	1.9593213e-05
137	0x3703de70	7.859999e-06
138	0x379ed1cc	1.8932762e-05
139	0x379ed1cc	1.8932762e-05
140	0x3765dd85	1.370104e-05
141	0x37a886af	2.0089878e-05
142	0x36f8ad59	7.4111563e-06
143	0x37d1af98	2.4996509e-05
144	0x37d1af98	2.4996509e-05
145	0x338a5c3a	6.442902e-08
146	0x33e7136a	1.0760307e-07
147	0x339773c6	7.0525445e-08
148	0x3583598f	9.786326e-07
149	0x3583598f	9.786326e-07

exp_avg f4 [30]
0	0xb91924ec	-0.00014604972
1	0xbab8a869	-0.0014088276
2	0xba070408	-0.0005150442
3	0x00000000	0.0
4	0xbae3a20c	-0.0017367019
5	0x00000000	0.0
6	0xb9cf9dc2	-0.00039599655
7	0xb8dac6f0	-0.00010432105
8	0x3aec4413	0.0018025659
9	0x3b33148b	0.0027325477
10	0xb93898b0	-0.00017604488
11	0x3ac47e85	0.0014991319
12	0xba979484	-0.0011564647
13	0xba5b7790	-0.0008372003
14	0xb9e8fb88	-0.00044437894
15	0xba2c55b2	-0.0006574049
16	0xb99f27ba	-0.00030356442
17	0x37f2e740	2.8956332e-05
18	0x3a4b228b	0.0007748983
19	0x00000000	0.0
20	0xbafcf24f	-0.0019298288
21	0x38ef59e0	0.000114131486
22	0xba2a804f	-0.0006504105
23	0x3a85ada7	0.0010198847
24	0x3a76c564	0.0009413569
25	0x36ab4280	5.1039387e-06
26	0x397bfbf3	0.00024031084
27	0x3af36269	0.0018568757
28	0xbade6850	-0.0016968343
29	0xb8ac9efe	-8.231214e-05

exp_avg_sq f4 [30]
0	0x362a0e81	2.5340416e-06
1	0x382258f1	3.8706643e-05
2	0x37f84584	2.9596275e-05
3	0x00000000	0.0
4	0x37d0579e	2.4836332e-05
5	0x00000000	0.0
6	0x36bf7bd6	5.70666e-06
7	0x37c9cf7a	2.4057681e-05
8	0x375d22cc	1.3180728e-05
9	0x3894d154	7.09618e-05
10	0x37410f8a	1.1507314e-05
11	0x382a9336	4.066826e-05
12	0x37d8c748	2.5842004e-05
13	0x37c61e16	2.361745e-05
14	0x36de26b4	6.620621e-06
15	0x376b9405	1.4041555e-05
16	0x379ed446	1.8933915e-05
17	0x374e8052	1.2308434e-05
18	0x3785b7f1	1.594049e-05
19	0x00000000	0.0
20	0x37d68858	2.5574278e-05
21	0x379d0e8a	1.8722629e-05
22	0x37a69ac4	1.986081e-05
23	0x380d5eb7	3.370523e-05
24	0x37421554	1.1568267e-05
25	0x369945a4	4.5678626e-06
26	0x370b8031	8.3148925e-06
27	0x3841bb2e	4.618911e-05
28	0x387fe403	6.100909e-05
29	0x361c4e60	2.3291432e-06

exp_avg f4 [3, 30]
0	0xb8da4150	-0.000104072154
1	0x38ac04e2	8.2025086e-05
2	0x3a110fff	0.00055336946
3	0x00000000	0.0
4	0xb90f7ea8	-0.00013684726
5	0x00000000	0.0
6	0x3913a2bc	0.00014079636
7	0xb916fd70	-0.00014399528
8	0xb96eb369	-0.00022764284
9	0xba092878	-0.00052321656
10	0x39109206	0.00013787308
11	0xb9420b23	-0.0001850543
12	0x3912df23	0.0001400677
13	0x39419d62	0.00018464544
14	0xb872a4d0	-5.785079e-05
15	0x3907d8cd	0.00012955368
16	0x3924212d	0.00015652618
17	0x396195db	0.00021513498
18	0xb802caf0	-3.1183416e-05
19	0x00000000	0.0
20	0x38bba394	8.947324e-05
21	0xb77286c4	-1.4455702e-05
22	0x392d6d56	0.00016539296
23	0xb931567e	-0.00016912256
24	0xb60c2728	-2.0884418e-06
25	0xb74a2af6	-1.2050141e-05
26	0xb8f0ebeb	-0.00011488035
27	0x3868c8c9	5.5500106e-05
28	0x38985ca0	7.2651776e-05
29	0x36cc51ca	6.0891953e-06
30	0xba0c2436	-0.0005345972
31	0xb9503850	-0.00019857404
32	0xbab5ff88	-0.0013885358
33	0x00000000	0.0
34	0xbb23a058	-0.0024967398
35	0x00000000	0.0
36	0xb99a89fa	-0.0002947597
37	0x392685ec	0.00015880883
38	0xba42edb7	-0.0007435935
39	0xba878524	-0.0010339362
40	0x3951abc9	0.00019995788
41	0xb974ae01	-0.00023334475
42	0x3999e2d4	0.00029351434
43	0xb8226c18	-3.872448e-05
44	0xb99d3376	-0.00029983715
45	0xb7020b40	-7.751223e-06
46	0xb8ef21b0	-0.00011402683
47	0x39edadfd	0.00045333794
48	0xb86bbe53	-5.620562e-05
49	0x00000000	0.0
50	0xbaa0aa84	-0.0012257849
51	0xb8f126cd	-0.00011499003
52	0xb91d66e6	-0.0001501102
53	0xb9bc067d	-0.00035862988
54	0xb95e0800	-0.0002117455
55	0xb95297d1	-0.00020083717
56	0x389c4c98	7.4529264e-05
57	0xb96cc336	-0.00022579436
58	0xbb3827ae	-0.0028099823
59	0x3936329b	0.00017375725
60	0x39363ad1	0.00017378783
61	0x3a0cc397	0.00053697213
62	0xbae75ce4	-0.0017651585
63	0x00000000	0.0
64	0xbb592eee	-0.0033139545
65	0x00000000	0.0
66	0x3a447f70	0.00074957963
67	0x399f4d28	0.0003038433
68	0xbabd6efc	-0.0014452632
69	0x38d59820	0.00010184967
70	0x3981af98	0.00024735625
71	0x3ad3cb57	0.0016158622
72	0x39a52795	0.00031500743
73	0x39f016ee	0.0004579345
74	0x3aa2a43e	0.0012408567
75	0x3a2f42f6	0.0006685698
76	0x39eeb522	0.00045529852
77	0x3a085686	0.0005200881
78	0x38a01ab0	7.6343655e-05
79	0x00000000	0.0
80	0xbb1589d9	-0.002281776
81	0x3aa21c64	0.001236808
82	0x3a108640	0.0005513169
83	0x39418ad0	0.00018457626
84	0x3a29a128	0.00064708525
85	0xb8aef92d	-8.343379e-05
86	0x3a302c50	0.000672047
87	0xb8325f40	-4.2527216e-05
88	0xbb1c40a3	-0.0023842237
89	0x390d5e5e	0.00013481962

exp_avg_sq f4 [3, 30]
0	0x36021cc2	1.9388249e-06
1	0x3623d28a	2.4411443e-06
2	0x37f48c53	2.915241e-05
3	0x00000000	0.0
4	0x37c87a7d	2.3898896e-05
5	0x00000000	0.0
6	0x37449bea	1.1718812e-05
7	0x35de55c2	1.6565248e-06
8	0x3698b5bf	4.551111e-06
9	0x37925d74	1.7448074e-05
10	0x35cfeca6	1.5491576e-06
11	0x36d9f1fa	6.4952737e-06
12	0x3596e90c	1.1243696e-06
13	0x35ef2741	1.7818312e-06
14	0x36c56845	5.883196e-06
15	0x367dfc0d	3.784665e-06
16	0x36ae52dd	5.1952507e-06
17	0x3615a666	2.2299587e-06
18	0x35801033	9.541458e-07
19	0x00000000	0.0
20	0x36f388ca	7.2578887e-06
21	0x34f7b873	4.614154e-07
22	0x3632eb36	2.6660978e-06
23	0x363876c4	2.7487267e-06
24	0x35ed0af0	1.7661059e-06
25	0x336309d3	5.286149e-08
26	0x35d117d9	1.5578654e-06
27	0x361558cc	2.2254417e-06
28	0x3849d488	4.812007e-05
29	0x340a2105	1.2864264e-07
30	0x35038c1c	4.900519e-07
31	0x373c8228	1.1235978e-05
32	0x3825bf55	3.9517257e-05
33	0x00000000	0.0
34	0x38699dbc	5.569843e-05
35	0x00000000	0.0
36	0x37b6bd9b	2.1784383e-05
37	0x35a25358	1.2094197e-06
38	0x373b9acc	1.118211e-05
39	0x37b4c829	2.1550879e-05
40	0x36ce1274	6.1414266e-06
41	0x36322a0a	2.6548537e-06
42	0x36d626a2	6.3821944e-06
43	0x3729a38a	1.0111262e-05
44	0x36c518b1	5.873932e-06
45	0x3776d95d	1.4713351e-05
46	0x37a5750b	1.9724035e-05
47	0x3716d2d2	8.989782e-06
48	0x3540a1e7	7.176117e-07
49	0x00000000	0.0
50	0x376272ef	1.349741e-05
51	0x3371a876	5.62654e-08
52	0x3749f7b7	1.2038209e-05
53	0x370d8339	8.434808e-06
54	0x36b380cb	5.349609e-06
55	0x358c8015	1.046809e-06
56	0x35726bae	9.030872e-07
57	0x36ba5376	5.552948e-06
58	0x389d64ef	7.505144e-05
59	0x34de2ae7	4.1381938e-07
60	0x353887e6	6.87431e-07
61	0x36a0f3aa	4.796738e-06
62	0x38fc52dd	0.00012031731
63	0x00000000	0.0
64	0x384c64d5	4.8731297e-05
65	0x00000000	0.0
66	0x37bb008e	2.2292395e-05
67	0x38d4034d	0.000101095626
68	0x389952ea	7.3110525e-05
69	0x38e7229d	0.000110213856
70	0x37afde2c	2.0965083e-05
71	0x3892037b	6.962471e-05
72	0x37109879	8.618569e-06
73	0x373e2e22	1.1335624e-05
74	0x3727fb38	1.0012467e-05
75	0x371f935b	9.511447e-06
76	0x37a2da5b	1.9413585e-05
77	0x37db79e8	2.6163601e-05
78	0x3830a325	4.211361e-05
79	0x00000000	0.0
80	0x37d4b4b8	2.5356523e-05
81	0x37a9cd1c	2.0241881e-05
82	0x37845483	1.577498e-05
83	0x38723f16	5.775605e-05
84	0x37f4bd17	2.9175118e-05
85	0x34ce46c7	3.8421987e-07
86	0x38818526	6.176e-05
87	0x3829b16a	4.045797e-05
88	0x391a6033	0.00014722421
89	0x369dcfbc	4.703148e-06

exp_avg f4 [3]
0	0x39e265a8	0.0004318182
1	0xbb20d3f4	-0.0024540396
2	0xbaa82137	-0.0012827282

exp_avg_sq f4 [3]
0	0x3858485b	5.15658e-05
1	0x38901f22	6.872254e-05
2	0x390ff951	0.0001373042
